…
2026-04-15,14:24:45 | INFO | Model local-dir:/root/paddlejob/workspace/env_run/penghaotian/models/timm/PE-Core-B-16 creation process complete.
2026-04-15,14:24:46 | INFO | Final image preprocessing configuration set: {'size': (224, 224), 'mode': 'RGB', 'mean': [0.5, 0.5, 0.5], 'std': [0.5, 0.5, 0.5], 'interpolation': 'bilinear',
 'resize_mode': 'squash', 'fill_color': 0}
2026-04-15,14:24:46 | INFO | Model local-dir:/root/paddlejob/workspace/env_run/penghaotian/models/timm/PE-Core-B-16 creation process complete.
2026-04-15,14:24:46 | INFO | Model:
2026-04-15,14:24:46 | INFO | CustomTextCLIP(
  (visual): TimmModel(
    (trunk): Eva(
      (patch_embed): PatchEmbed(
        (proj): Conv2d(3, 768, kernel_size=(16, 16), stride=(16, 16), bias=False)
        (norm): Identity()
      )
      (pos_drop): Dropout(p=0.0, inplace=False)
      (rope): RotaryEmbeddingCat()
      (norm_pre): LayerNorm((768,), eps=1e-05, elementwise_affine=True)
      (blocks): ModuleList(
        (0-11): 12 x EvaBlock(
          (norm1): LayerNorm((768,), eps=1e-05, elementwise_affine=True)
          (attn): AttentionRope(
            (qkv): Linear(in_features=768, out_features=2304, bias=True)
            (q_norm): Identity()
            (k_norm): Identity()
            (attn_drop): Dropout(p=0.0, inplace=False)
            (norm): Identity()
            (proj): Linear(in_features=768, out_features=768, bias=True)
            (proj_drop): Dropout(p=0.0, inplace=False)
          )
          (drop_path1): Identity()
          (norm2): LayerNorm((768,), eps=1e-05, elementwise_affine=True)
          (mlp): Mlp(
            (fc1): Linear(in_features=768, out_features=3072, bias=True)
            (act): GELU(approximate='none')
            (drop1): Dropout(p=0.0, inplace=False)
            (norm): Identity()
            (fc2): Linear(in_features=3072, out_features=768, bias=True)
            (drop2): Dropout(p=0.0, inplace=False)
          )
          (drop_path2): Identity()
        )
      )
      (norm): LayerNorm((768,), eps=1e-05, elementwise_affine=True)
      (attn_pool): AttentionPoolLatent(
        (q): Linear(in_features=768, out_features=768, bias=True)
        (kv): Linear(in_features=768, out_features=1536, bias=True)
        (q_norm): Identity()
        (k_norm): Identity()
        (proj): Linear(in_features=768, out_features=768, bias=True)
        (proj_drop): Dropout(p=0.0, inplace=False)
        (norm): LayerNorm((768,), eps=1e-05, elementwise_affine=True)
        (mlp): Mlp(
          (fc1): Linear(in_features=768, out_features=3072, bias=True)
          (act): GELU(approximate='none')
          (drop1): Dropout(p=0.0, inplace=False)
          (norm): Identity()
          (fc2): Linear(in_features=3072, out_features=768, bias=True)
          (drop2): Dropout(p=0.0, inplace=False)
        )
      )
      (fc_norm): Identity()
      (head_drop): Dropout(p=0.0, inplace=False)
      (head): Linear(in_features=768, out_features=1024, bias=True)
    )
    (head): Sequential()
  )
  (text): TextTransformer(
    (token_embedding): Embedding(49408, 1024)
    (transformer): Transformer(
      (resblocks): ModuleList(
        (0-23): 24 x ResidualAttentionBlock(
          (ln_1): LayerNorm((1024,), eps=1e-05, elementwise_affine=True)
          (attn): MultiheadAttention(
            (out_proj): NonDynamicallyQuantizableLinear(in_features=1024, out_features=1024, bias=True)
          )
          (ls_1): Identity()
          (ln_2): LayerNorm((1024,), eps=1e-05, elementwise_affine=True)
          (mlp): Sequential(
            (c_fc): Linear(in_features=1024, out_features=4096, bias=True)
            (gelu): GELU(approximate='none')
            (c_proj): Linear(in_features=4096, out_features=1024, bias=True)
          )
          (ls_2): Identity()
        )
      )
    )
    (ln_final): LayerNorm((1024,), eps=1e-05, elementwise_affine=True)
  )
)
2026-04-15,14:24:46 | INFO | Params:
2026-04-15,14:24:46 | INFO |   accum_freq: 1
2026-04-15,14:24:46 | INFO |   aug_cfg: {}
2026-04-15,14:24:46 | INFO |   batch_size: 256
2026-04-15,14:24:46 | INFO |   beta1: 0.9
2026-04-15,14:24:46 | INFO |   beta2: 0.999
2026-04-15,14:24:46 | INFO |   cache_dir: None
2026-04-15,14:24:46 | INFO |   checkpoint_path: ./logs/eval_pe_core_5cap_0415_1423/checkpoints
…
